…
d generator with 11982 samples. Doing 120 steps of size 100 INFO: Loaded generator with 1984 samples. Doing 20 steps of size 100 INFO: Loaded generator with 1984 samples. Doing 20 steps of size 100 INFO: Built generators with 120 training samples, 20 validation samples and 20 test samples. INFO: Started training feature extraction. __________________________________________________________________________________________________ Layer (type) Output Shape Param # Connected to ================================================================================================== input_1 (InputLayer) (None, 28, 28, 1) 0 __________________________________________________________________________________________________ conv2d_1 (Conv2D) (None, 28, 28, 16) 160 input_1[0][0] __________________________________________________________________________________________________ activation_1 (Activation) (None, 28, 28, 16) 0 conv2d_1[0][0] __________________________________________________________________________________________________ conv2d_2 (Conv2D) (None, 28, 28, 16) 2320 activation_1[0][0] __________________________________________________________________________________________________ activation_2 (Activation) (None, 28, 28, 16) 0 conv2d_2[0][0] __________________________________________________________________________________________________ conv2d_3 (Conv2D) (None, 28, 28, 16) 2320 activation_2[0][0] __________________________________________________________________________________________________ activation_3 (Activation) (None, 28, 28, 16) 0 conv2d_3[0][0] __________________________________________________________________________________________________ add_1 (Add) (None, 28, 28, 16) 0 activation_1[0][0] activation_3[0][0] __________________________________________________________________________________________________ activation_4 (Activation) (None, 28, 28, 16) 0 add_1[0][0] __________________________________________________________________________________________________ conv2d_4 (Conv2D) (None, 28, 28, 16) 2320 activation_4[0][0] __________________________________________________________________________________________________ activation_5 (Activation) (None, 28, 28, 16) 0 conv2d_4[0][0] __________________________________________________________________________________________________ conv2d_5 (Conv2D) (None, 28, 28, 16) 2320 activation_5[0][0] __________________________________________________________________________________________________ activation_6 (Activation) (None, 28, 28, 16) 0 conv2d_5[0][0] __________________________________________________________________________________________________ add_2 (Add) (None, 28, 28, 16) 0 activation_4[0][0] activation_6[0][0] __________________________________________________________________________________________________ activation_7 (Activation) (None, 28, 28, 16) 0 add_2[0][0] __________________________________________________________________________________________________ conv2d_6 (Conv2D) (None, 28, 28, 16) 2320 activation_7[0][0] __________________________________________________________________________________________________ activation_8 (Activation) (None, 28, 28, 16) 0 conv2d_6[0][0] __________________________________________________________________________________________________ conv2d_7 (Conv2D) (None, 28, 28, 16) 2320 activation_8[0][0] __________________________________________________________________________________________________ activation_9 (Activation) (None, 28, 28, 16) 0 conv2d_7[0][0] __________________________________________________________________________________________________ add_3 (Add) (None, 28, 28, 16) 0 activation_7[0][0] activation_9[0][0] __________________________________________________________________________________________________ activation_10 (Activation) (None, 28, 28, 16) 0 add_3[0][0] __________________________________________________________________________________________________ conv2d_8 (Conv2D) (None, 14, 14, 32) 4640 activation_10[0][0] __________________________________________________________________________________________________ activation_11 (Activation) (None, 14, 14, 32) 0 conv2d_8[0][0] __________________________________________________________________________________________________ conv2d_10 (Conv2D) (None, 14, 14, 32) 544 activation_10[0][0] __________________________________________________________________________________________________ conv2d_9 (Conv2D) (None, 14, 14, 32) 9248 activation_11[0][0] __________________________________________________________________________________________________ activation_13 (Activation) (None, 14, 14, 32) 0 conv2d_10[0][0] __________________________________________________________________________________________________ activation_12 (Activation) (None, 14, 14, 32) 0 conv2d_9[0][0] __________________________________________________________________________________________________ add_4 (Add) (None, 14, 14, 32) 0 activation_13[0][0] activation_12[0][0] __________________________________________________________________________________________________ activation_14 (Activation) (None, 14, 14, 32) 0 add_4[0][0] __________________________________________________________________________________________________ conv2d_11 (Conv2D) (None, 14, 14, 32) 9248 activation_14[0][0] __________________________________________________________________________________________________ activation_15 (Activation) (None, 14, 14, 32) 0 conv2d_11[0][0] __________________________________________________________________________________________________ conv2d_12 (Conv2D) (None, 14, 14, 32) 9248 activation_15[0][0] __________________________________________________________________________________________________ activation_16 (Activation) (None, 14, 14, 32) 0 conv2d_12[0][0] __________________________________________________________________________________________________ add_5 (Add) (None, 14, 14, 32) 0 activation_14[0][0] activation_16[0][0] __________________________________________________________________________________________________ activation_17 (Activation) (None, 14, 14, 32) 0 add_5[0][0] __________________________________________________________________________________________________ conv2d_13 (Conv2D) (None, 14, 14, 32) 9248 activation_17[0][0] __________________________________________________________________________________________________ activation_18 (Activation) (None, 14, 14, 32) 0 conv2d_13[0][0] __________________________________________________________________________________________________ conv2d_14 (Conv2D) (None, 14, 14, 32) 9248 activation_18[0][0] __________________________________________________________________________________________________ activation_19 (Activation) (None, 14, 14, 32) 0 conv2d_14[0][0] __________________________________________________________________________________________________ add_6 (Add) (None, 14, 14, 32) 0 activation_17[0][0] activation_19[0][0] __________________________________________________________________________________________________ activation_20 (Activation) (None, 14, 14, 32) 0 add_6[0][0] __________________________________________________________________________________________________ conv2d_15 (Conv2D) (None, 7, 7, 64) 18496 activation_20[0][0] __________________________________________________________________________________________________ activation_21 (Activation) (None, 7, 7, 64) 0 conv2d_15[0][0] __________________________________________________________________________________________________\nconv2d_17 (Conv2D) (None, 7, 7, 64) 2112 activation_20[0][0] __________________________________________________________________________________________________ conv2d_16 (Conv2D) (None, 7, 7, 64) 36928 activation_21[0][0] __________________________________________________________________________________________________ activation_23 (Activation) (None, 7, 7, 64) 0 conv2d_17[0][0] __________________________________________________________________________________________________ activation_22 (Activation) (None, 7, 7, 64) 0 conv2d_16[0][0] __________________________________________________________________________________________________ add_7 (Add) (None, 7, 7, 64) 0 activation_23[0][0] activation_22[0][0] __________________________________________________________________________________________________ activation_24 (Activation) (None, 7, 7, 64) 0 add_7[0][0] __________________________________________________________________________________________________ conv2d_18 (Conv2D) (None, 7, 7, 64) 36928 activation_24[0][0] __________________________________________________________________________________________________ activation_25 (Activation) (None, 7, 7, 64) 0 conv2d_18[0][0] __________________________________________________________________________________________________ conv2d_19 (Conv2D) (None, 7, 7, 64) 36928 activation_25[0][0] __________________________________________________________________________________________________ activation_26 (Activation) (None, 7, 7, 64) 0 conv2d_19[0][0] __________________________________________________________________________________________________ add_8 (Add) (None, 7, 7, 64) 0 activation_24[0][0] activation_26[0][0] __________________________________________________________________________________________________ activation_27 (Activation) (None, 7, 7, 64) 0 add_8[0][0] __________________________________________________________________________________________________ conv2d_20 (Conv2D) (None, 7, 7, 64) 36928 activation_27[0][0] __________________________________________________________________________________________________ activation_28 (Activation) (None, 7, 7, 64) 0 conv2d_20[0][0] __________________________________________________________________________________________________ conv2d_21 (Conv2D) (None, 7, 7, 64) 36928 activation_28[0][0] __________________________________________________________________________________________________ activation_29 (Activation) (None, 7, 7, 64) 0 conv2d_21[0][0] __________________________________________________________________________________________________ add_9 (Add) (None, 7, 7, 64) 0 activation_27[0][0] activation_29[0][0] __________________________________________________________________________________________________ activation_30 (Activation) (None, 7, 7, 64) 0 add_9[0][0] __________________________________________________________________________________________________ average_pooling2d_1 (AveragePoo (None, 1, 1, 64) 0 activation_30[0][0] __________________________________________________________________________________________________ atten_1 (Flatten) (None, 64) 0 average_pooling2d_1[0][0] __________________________________________________________________________________________________ dense_1 (Dense) (None, 2) 130 atten_1[0][0] __________________________________________________________________________________________________ activation_31 (Activation) (None, 2) 0 dense_1[0][0] ================================================================================================== Total params: 270,882 Trainable params: 270,882 Non-trainable params: 0 __________________________________________________________________________________________________ INFO: Loading existing model from /home/d909b/models/cex_main_1/model.npz _________________________________________________________________ Layer (type) Output Shape Param # ================================================================= input_3 (InputLayer) (None, 28, 28, 1) 0 _________________________________________________________________ atten_3 (Flatten) (None, 784) 0 _________________________________________________________________ dense_3 (Dense) (None, 75) 58875 _________________________________________________________________ activation_63 (Activation) (None, 75) 0 _________________________________________________________________ dense_4 (Dense) (None, 75) 5700 _________________________________________________________________ activation_64 (Activation) (None, 75) 0 _________________________________________________________________ dense_5 (Dense) (None, 196) 14896 _________________________________________________________________ activation_65 (Activation) (None, 196) 0 _________________________________________________________________ reshape_1 (Reshape) (None, 14, 14, 1) 0 _________________________________________________________________ lambda_2 (Lambda) (None, 28, 28, 1) 0 _________________________________________________________________ reshape_2 (Reshape) (None, 784) 0 ================================================================= Total params: 79,471 Trainable params: 79,471 Non-trainable params: 0 _________________________________________________________________ INFO: Loading existing CXPlain model from /home/d909b/models/cex_main_1_cxplain_20.1h/best_explanation.npz build_explanation_model : took 1.81394100189 seconds. INFO: Saving loss history to /home/d
…
t', 'validation_set_fraction': 0.2, 'num_units_cxplain': -1, 'model_name': 'model.npz'} INFO: Loaded generator with 11982 samples. Doing 120 steps of size 100 INFO: Loaded generator with 1984 samples. Doing 20 s eps of size 100 INFO: Loaded generator with 1984 samples. Doing 20 steps of size 100 INFO: Built generators with 120 training samples, 20 validation samples and 20 test samples. INFO: Started training feature extraction. Layer (type) Output Shape Param # Connected to ================================================================================================== input_1 (InputLayer) (None, 28, 28, 1) 0 1 ( ) ( , , , ) 160 input_1[0][0] i i 1 ( i i ) ( , , , ) 1[ ][ ] conv d_2 (Conv2D) (None, 28, 28, 16) 2320 activation_1[0][0] ____________________________________ _____________________________________________________________ activation 2 (Activation) (None, 28, 28, 16) 0 conv2d 2[0][0] ________ _______________________________________ _________________________________________________ conv2d 3 (Conv2D) (None, 28, 28, 16) 2320 activation 2[0][0] ______ _______________________________________________ ___________________________________________ activation 3 (Activation) (None, 28, 28, 16) 0 conv2d 3[0][0] ________ __________________________________________ ______________________________________________ add 1 (Add) (None, 28, 28, 16) 0 activation 1[0][0] activation_3[0][0] i i 4 ( i i ) ( , , , ) add_1[0][0] conv2d_4 (Conv2D) (None, 28, 28, 16) 2320 activation_4[0][0] ____________________________________ _____________________________________________________________ activation 5 (Activation) (None, 28, 28, 16) 0 conv2d 4[0][0] ________ _________________________________________________________________________________________ conv2d 5 (Conv2D) (None, 28, 28, 16) 2320 activation 5[0][0] ______ _______________________________________________ ___________________________________________ activation 6 (Activation) (None, 28, 28, 16) 0 conv2d 5[0][0] ________ _________________________________________________________________________________________ add 2 (Add) (None, 28, 28, 16) 0 activation 4[0][0] activation_6[0][0]\nacti ation_7 (Activation) (None, 28, 28, 16) 0 add_2[0][0]\ncon 2d_6 (Conv2D) (None, 28, 28, 16) 2320 activation_7[0][0]\ni i 8 (Activation) (None, 28, 28, 16) 0 conv2d_6[0][0]\nconv2d_7 (Conv2D) (None, 28, 8, 16) 2320 activation_8[0][0] ____________________________________ _____________________________________________________________ activation 9 (Activation) (None, 28, 28, 16) 0 conv2d 7[0][0] ________ _________________________________________________________________________________________ add 3 (Add) (None, 28, 28, 16) 0 activation 7[0][0] activation_9[0][0]\ni i 0 ( i i ) ( , 28, 28, 16) add_3[0][0]\n8 (Conv2D) (None, 14, 14, 32) 4640 activation_10[0][0]\ni i 1 ( i i ) ( , , , ) 8[0][0]\nconv2d_10 (Conv2D) (None, 14, 14, 32) 544 activation_10[0][0] ____________________________________ _____________________________________________________________ conv2d 9 (Conv2D) (None, 14, 14, 32) 9248 activation 11[0][0] ________ _________________________________________________________________________________________ activation 13 (Activation) (None, 14, 14, 32) 0 conv2d_10[0][0] ______ ________________________________________________ __________________________________________ activation 12 (Activation) (None, 14, 14, 32) 0 conv2d_9[0][0] ________ _________________________________________________________________________________________ add 4 (Add) (None, 14, 14, 32) 0 activation 13[0][0] activation_12[0][0]\ni i 4 ( i i ) ( , , , ) add_4[0][0]\nconv2d_11 (Conv2D) (None, 14, 14, 32) 9248 activation_14[0][0] ____________________________________ _____________________________________________________________ activation 15 (Activation) (None, 14, 14, 32) 0 conv2d_11[0][0] ________ _________________________________________________________________________________________ conv2d 12 (Conv2D) (None, 14, 14, 32) 9248 activation 15[0][0] ______ _______________________________________________ ___________________________________________ activation 16 (Activation) (None, 14, 14, 32) 0 conv2d_12[0][0] ________ _________________________________________ _______________________________________________ add 5 (Add) (None, 14, 14, 32) 0 activation 14[0][0] activation_16[0][0]\nacti ation_17 (Activation) (None, 14, 1 , 32) 0 add_5[0][0]\ncon 2d_13 (Conv2D) (None, 14, 14, 32) 9248 activation_17[0][0]\ni i 18 ( i i ) ( , 14, 14, 32) 0 conv2d_13[0][0]\nconv2d_14 (Conv2D) (None, 14, 14, 32) 9248 activation_18[0][0] ____________________________________ _____________________________________________________________ activation 19 (Activation) (None, 14, 14, 32) 0 conv2d_14[0][0] ________ ______________________________________ __________________________________________________ add 6 (Add) (None, 14, 14, 32) 0 activation 17[0][0] activation_19[0][0]\ni i 0 ( i i ) ( , 14, 14, 32) 0 add_6[0][0]\n5 ( ) ( , , , ) 18496 i i 0[ ][ ]\ni i 1 ( i i ) ( , , , ) 5[ ][ ]\nconv2d_17 (Conv2D) (None, 7, 7, 64) 2112 activation_20[0][0] ____________________________________ _____________________________________________________________ conv2d 16 (Conv2D) (None, 7, 7, 64) 36928 activation 21[0][0] ________ ______________________________________ __________________________________________________ activation 23 (Activation) (None, 7, 7, 64) 0 conv2d 17[0][0] ______ _______________________________________________ ___________________________________________ activation 22 (Activation) (None, 7, 7, 64) 0 conv2d 16[0][0] ________ _________________________________________ _______________________________________________ add 7 (Add) (None, 7, 7, 64) 0 activation_23[0][0] activation_22[0][0]\ni i 4 ( i i ) ( , , , ) add_7[0][0]\nconv2d_18 (Conv2D) (None, 7, 7, 64) 36928 activation_24[0][0] ____________________________________ _____________________________________________________________ activation 25 (Activation) (None, 7, 7, 64) 0 conv2d 18[0][0] ________ ______________________________________ __________________________________________________ conv2d 19 (Conv2D) (None, 7, 7, 64) 36928 activation 25[0][0] ________________ _________________________________________ _______________________________________ activation 26 (Activation) (None, 7, 7, 64) 0 conv2d 19[0][0] ______________________________________________ ___________________________________________________ add 8 (Add) (None, 7, 7, 64) 0 activation_24[0][0] activation_26[0][0]\ni i 27 ( i i ) ( , 7, 7, 64) 0 add 8[ ][ ] __________________________________________________________________________________________________ c nv2d_20 (Conv2D) (None, 7, 7, 64) 36928 activation_27[0][0] __________________________________________________________________________________________________ activatio _28 (Activation) (None, 7, 7, 64) 0 conv2d_20[0][0]\nconv2d_21 (Conv2D) (None, 7, 7, 64) 36928 activation_28[0][0] _________________________________ activation_29 (Activation) (Non , 7, 7, 64) 0 conv2d_21[0][0] __________________________________________________________________________________________________ add_9 (Add) (None, 7, 7, 64) 0 activation_27[0][0] activation 29[0][0] __________________________________________________________________________________________________ activation 30 (Activation) (None, 7, 7, 64) 0 add 9[0][0] _____ ____________________________________________________________________________________________ average_pooling2d 1 (AveragePoo (None, 1, 1, 64) 0 activation 30[0][0] ________ _________________________________________________________________________________________ atten_1 (Flatten) (None, 64) 0 average pooling2d_1[0][0] _____ ____________________________________________________________________________________________ dense 1 (Dense) (None, 2) 130 atten 1[0][0] ________ _________________________________________________________________________________________ activation 31 (Activation) (None, 2) 0 dense 1[0][0] ================================================================================================== Total params: 270,882 Train ble params: 270,882 Non-trainable params: 0 __________________________________________________________________________________________________ INFO: Loading existing model from /home/d909b/models/cex main_1/model.npz _________________________________________________________________ Layer (type) Output Shape Param # ================================================================= input_3 (InputLayer) (None, 28, 28, 1) 0 _________________________________________________________________ atten_3 (Flatten) (None, 784) 0 _________________________________________________________________ dense 3 (Dense) (None, 75) 58875 __________________________________________________________ ____ _ activation_63 (Activation) (N ne, 75) 0 _____________________________________________ ____ _ ______ _____ dense_4 (Dense) (None, 75) 5700 _________________________________________________________________ activation_64 (Activation) (None, 75) 0 _________________________________________________________________ dense_5 (Dense) (None, 196) 14896 _________________________________________________________________ activation_65 (Activation) (None, 196) 0 _________________________________________________________________ reshape_1 (Reshape) (None, 14, 14, 1) 0 _________________________________________________________________ lambda_2 (Lambda) (None, 28, 28, 1) 0 _________________________________________________________________ reshap _2 (Reshape) (None, 784) 0 ================================================================= Total params: 79,471 Trainable params: 79,471 Non-trainable params: 0 _________________________________________________________________ INFO: Loading existing CXPlain model from /home/d909b/models/cex_main_1_cxplain_20.1h/best_explanation.npz build_explanation_model : took 1.81394100189 seconds. INFO: Saving loss history to /home/d
…
d generator with 11982 samples. Doing 120 steps of size 100 INFO: Loaded generator with 1984 samples. Doing 20 steps of size 100 INFO: Loaded generator with 1984 samples. Doing 20 s eps of size 100 INFO: Built generators with 120 tr ining samples, 20 validation samples and 20 test samples. INFO: Started training feature extraction. ________ _______________________________________ _________________________________________________ Layer (type) Output Shape Param # Connected to ================================================================================================== input_1 (InputLayer) (None, 28, 28, 1) 0 ________ __________________________________________ ______________________________________________ conv2d 1 (Conv2D) (None, 28, 28, 16) 160 input 1[0][0] ______ _______________________________________________ ___________________________________________ activation 1 (Activation) (None, 28, 28, 16) 0 conv2d 1[0][0] ________ __________________________________________ ______________________________________________ conv2d 2 (Conv2D) (None, 28, 28, 16) 2320 activation 1[0][0] ___ _____________________________________________ ________________________________________________ activation_2 (Activation) (None, 28, 28, 16) 0 conv2d_2[0][0] con 2d_3 (Conv2D) (None, 28, 28, 16) 2320 activation_2[0][0] acti ation_3 (Activation) (None, 28, 28, 16) 0 conv2d_3[0][0] dd_1 (Add) (None, 28, 28, 16) 0 activation_1[0] activation 3[0][0] ______ _______________________________________________ ___________________________________________ activation 4 (Activation) (None, 28, 28, 16) 0 add 1[0][0] ________ __________________________________________ ______________________________________________ conv2d 4 (Conv2D) (None, 28, 28, 16) 2320 activation 4[0][0] ___ _____________________________________________ ________________________________________________ activation_5 (Activation) (None, 28, 28, 16) 0 conv2d_4[0][0] con 2d_5 (Conv2D) (None, 28, 28, 16) 2320 activation_5[0][0] acti ation_6 (Activation) (None, 28, 28, 16) 0 conv2d_5[0][0] dd_2 (Add) (None, 28, 28, 16) 0 activation_4[0][0] activation 6[0][0] ______ _______________________________________________ ___________________________________________ activation 7 (Activation) (None, 28, 28, 16) 0 add 2[0][0] ______ _______________________________________________ ___________________________________________ conv2d 6 (Conv2D) (None, 28, 28, 16) 2320 activation 7[0][0] ________ _________________________________________________________________________________________ activation 8 (Activation) (None, 28, 28, 16) 0 conv2d 6[0][0] ________ _________________________________________________________________________________________ conv2d 7 (Conv2D) (None, 28, 28, 16) 2320 activation 8[0][0] ___ _____________________________________________ ________________________________________________ activation_9 (Activation) (None, 28, 28, 16) 0 conv2d_7[0][0]\ndd_3 (Add) (None, 28, 28, 16) 0 activation 7[ ][ ] activation 9[0][0] ______ ________________________________________________ __________________________________________ activation 10 (Activation) (None, 28, 28, 16) 0 add_3[0][0] ________ _________________________________________________________________________________________ conv2d 8 (Conv2D) (None, 14, 14, 32) 4640 activation 10[0][0] ______ ________________________________________________ __________________________________________ activation 11 (Activation) (None, 14, 14, 32) 0 conv2d_8[0][0] ________ _________________________________________________________________________________________ conv2d 10 (Conv2D) (None, 14, 14, 32) 544 activation 10[0][0] ___ _____________________________________________ ________________________________________________ conv2d_9 (Conv2D) (None, 14, 14, 32) 9248 activation_11[0][0]\ni i 3 i i , , , conv2d_1 [0][0]\nacti ation_12 (Activation) (None, 14, 14, 32) 0 conv2d_9[0][0]\ndd_4 (Add) (None, 14, 14, 32) 0 activation_13[0][0] activation 12[0][0] ______ ________________________________________________ __________________________________________ activation 14 (Activation) (None, 14, 14, 32) 0 add_4[0][0] ________ _________________________________________________________________________________________ conv2d 11 (Conv2D) (None, 14, 14, 32) 9248 activation 14[0][0] ___ _____________________________________________ ________________________________________________ activation_15 (Activation) (None, 14, 14, 32) conv2d_11[0][0]\ncon 2d_12 (Conv2D) (None, 14, 14, 32) 9248 activation_15[0][0]\nacti ation_16 (Activation) (None, 14, 1 , 32) 0 conv2d_12[0][0]\ndd_5 (Add) (None, 14, 14, 32) 0 activation_14[0][0] activation 16[0][0] ______ ___________________________________________________________________________________________ activation 17 (Activation) (None, 14, 14, 32) 0 add_5[0][0] ______ _______________________________________________ ___________________________________________ conv2d 13 (Conv2D) (None, 14, 14, 32) 9248 activation 17[0][0] ________ _________________________________________ _______________________________________________ activation 18 (Activation) (None, 14, 14, 32) 0 conv2d_13[0][0] ________ _________________________________________ _______________________________________________ conv2d 14 (Conv2D) (None, 14, 14, 32) 9248 activation 18[0][0] ___ ______________________________________________________________________________________________ activation_19 (Activation) (None, 14, 14, 3 ) conv2d_14[0][0]\ndd_6 (Add) (None, 14, 14, 32) 0 activation_17[0][0] activation 19[0][0] ______ _______________________________________________ ___________________________________________ activation 20 (Activation) (None, 14, 14, 32) 0 add_6[0][0] ________ _________________________________________ _______________________________________________ conv2d 15 (Conv2D) (None, 7, 7, 64) 18496 activation 20[0][0] ______ _______________________________________________ ___________________________________________ activation 21 (Activation) (None, 7, 7, 64) 0 conv2d 15[0][0] ________ _________________________________________ _______________________________________________ conv2d 17 (Conv2D) (None, 7, 7, 64) 2112 activation_20[0][0] ___ ______________________________________________________________________________________________ conv2d_16 (Conv2D) (None, 7, 7, 64) 36928 activation_21[0][0]\ni i 3 i i , , , conv2d_17[0][0]\nacti ation_22 (Activation) (None, 7, 7, 64) 0 conv2d_16[0][0]\ndd_7 (Add) (None, 7, 7, 64) 0 activation_23[0][0] activation 22[0][0] ______ _______________________________________________ ___________________________________________ activation 24 (Activation) (None, 7, 7, 64) 0 add 7[0][0] ________ _________________________________________ _______________________________________________ conv2d 18 (Conv2D) (None, 7, 7, 64) 36928 activation 24[0][0] ___ ______________________________________________________________________________________________ activation_25 (Activation) (None, 7, 7, 64) 0 conv2d_18[0][0]\ncon 2d_19 (Conv2D) (None, 7, 7, 64) 36928 activation_25[0][0]\nctivation_26 (Activation) (None, 7, 7, 64) 0 conv2d_19[0][0]\nadd_8 (Add) (None, 7, 7, 64) ctivation_24[0][0] activation 26[0][0] _____ ________________________________________ ___________________________________________________ activation 27 (Activation) (None, 7, 7, 64) 0 add 8[0][0] ________ ______________________________________ __________________________________________________ conv2d_20 (Conv2D) (None, 7, 7, 64) 36928 activation_27[0][0] __________________________________________________________________________________________________ activ tion_28 (Activation) (None, 7, 7, 64) 0 conv2d_20[0][0] __________________________________________________________________________________________________ conv2d 21 (Conv2D) (None, 7, 7, 64) 36928 activation 28[0][0] ___________________________________________________ ______________________________________________ activation 29 (Activation) (None, 7, 7, 64) 0 conv2d 21[0][0] __________________________________________________________________________________________________ add_9 (Add) (None, 7, 7, 64) 0 activation_27[0][0] activation_29[0][0]\n_________________________________ ac ivation_30 (Activation) (None, 7, 7, 64) 0 add_9[0][0]\n_________________________________ average_pooling2d_1 (AveragePoo (None, 1, 1, 64) 0 activation_30[0][0]\n_________________________________ a ten_1 (Flatten) (None, 64) 0 average_pooling2d_1[0][0]\n_________________________________ 1 (None, 2) 130 atten_1[0][0]\n_________________________________ i i 31 i i (None, 2) 0 dense_1[0][0]\n================================================================================================== Total params: 270,882 Trainable params: 270,882 Non-trai able params: 0\n_________________________________ INFO: Loading existing model from /home/d909b/models/cex_main_1/model.npz\nLayer (type) Output Shape Param # ================================================================= input_3 (InputLayer) (None, 28, 28, 1) 0 _________________________________________________________________ a ten_3 (Flatten) (None, 784) 0 _________________________________________________________________ de se_3 (Dense) (None, 75) 58875\nactivati n_63 (Activation) (None, 75) 0 ____ __________ _________________________________________________ dense_4 (Dense) (N ne, 75) 5700 _________________________________________________________________ activati n_64 (Activ ion) (None, 75) 0 __________________________________________________ ______________ dense_5 (D nse) (None, 196) 14896 __________________________________________________ ______________ activati n_65 (Activ ion) (None, 196) 0 __________________________________________________ ______________ reshape_1 (Reshape) (None, 14, 14, 1) 0 _________________________________________________________________ lambda_2 (Lambda) (None, 28, 28, 1) 0 _________________________________________________________________ reshape_2 (Reshape) (None, 784) 0 ======= ========================================================="
    },
    {
      "heading": "Total params: 79,471",
      "text": "T ainable params: 79,471 Non-trainable params: 0 _________________________________________________________________ INFO: Loading existing CXPlain model from /home/d909b/models/cex_main_1_cxplain_20.1h/best_explanation.npz build_explanation_model : took 1.81394100
…
