…
 20 East Aurora, New York 14052-0018 United States of America 716-652-2000\n47 5/19/2020"}, {"heading": "Appendix A: CNN Structure", "text": "The structure table of the CNN is provided below as output by the Keras API. The text following the CNN structure table provides the k-fold and run (treatment), epoch status and hyperparameter settings. In this case,the CNN was beginning the first epoch in the first fold of the expanded dataset 10-fold cross-validation of Section 5.6.\nLayer (type) Output Shape Param #\n=================================================================\nconv2d_1 (Conv2D) (None, 32, 70, 70) 896\n_________________________________________________________________\nmax_pooling2d_1 (MaxPooling2 (None, 32, 35, 35) 0\n_________________________________________________________________\ndropout_1 (Dropout) (None, 32, 35, 35) 0\n_________________________________________________________________\nconv2d_2 (Conv2D) (None, 32, 35, 35) 9248\n_________________________________________________________________\nmax_pooling2d_2 (MaxPooling2 (None, 32, 17, 17) 0\n_________________________________________________________________\ndropout_2 (Dropout) (None, 32, 17, 17) 0\n_________________________________________________________________\nconv2d_3 (Conv2D) (None, 64, 17, 17) 18496\n_________________________________________________________________\nmax_pooling2d_3 (MaxPooling2 (None, 64, 8, 8) 0\n_________________________________________________________________\ndropout_3 (Dropout) (None, 64, 8, 8) 0\n_________________________________________________________________\nflatten_1 (Flatten) (None, 4096) 0\n_________________________________________________________________\ndense_1 (Dense) (None, 64) 262208\n_________________________________________________________________\ndropout_4 (Dropout) (None, 64) 0\n_________________________________________________________________\ndense_2 (Dense) (None, 1) 65\n_________________________________________________________________\nactivation_1 (Activation) (None, 1) 0\n=================================================================\nTotal params: 290,913\nTrainable params: 290,913\nNon-trainable params: 0\n__________________________________________________________________________________\nNone\nK-fold: 1 Treatment: 1 , Batch: 240 , Kernel Constraint: 7.5 , Optimizer: Adam , DropCONV1: 0 , DropCONV2: 0 , DropCONV3: 0 , DropDNSE1: 0 , MaxPCONV1: 2 , MaxPCONV2:
…
